…
2022-12-28 17:09:23,300 - 0:00:06 - 0.2s - INFO - root - gen token = __gen__ , gen token id = 40482
gen token = __gen__ , gen token id = 40482
2022-12-28 17:09:23,301 - 0:00:06 - 0.0s - INFO - root - task_id=0
task_id=0
Done loading corpus
Done loading corpus
/home/xiaodi/anaconda3/envs/pytorch/lib/python3.6/site-packages/torch/nn/modules/rnn.py:65: UserWarning: dropout option adds dropout after all but last recurrent layer, so non-zero dropout expects num_layers greater than 1, but got dropout=0.3 and num_layers=1
  "num_layers={}".format(dropout, num_layers))
2022-12-28 17:09:35,948 - 0:00:19 - 12.6s - INFO - root - GMVAE4Lamol (
  (embedding): Embedding(40484, 512, padding_idx=40479), parameters=20727808
  (dec_embedding): Embedding(40484, 512, padding_idx=40479), parameters=20727808
  (x_encoder): EncoderRNN(
    (input_dropout): Dropout(p=0, inplace=False)
    (rnn): GRU(512, 512, batch_first=True, dropout=0.3, bidirectional=True)
  ), parameters=3151872
  (decoder): DecoderRNN(
    (input_dropout): Dropout(p=0.3, inplace=False)
    (rnn): GRU(552, 512, batch_first=True, dropout=0.3)
    (embedding): Embedding(40484, 512, padding_idx=40479)
    (output_dropout): Dropout(p=0.3, inplace=False)
  ), parameters=22365184
  (q_y_mean): Linear(in_features=1024, out_features=40, bias=True), parameters=41000
  (q_y_logvar): Linear(in_features=1024, out_features=40, bias=True), parameters=41000
  (dec_init_connector): LinearConnector(
    (linear): Linear(in_features=40, out_features=512, bias=False)
  ), parameters=20480
  (nll_loss): NLLEntropy(
    (nll_loss): NLLLoss()
  ), parameters=0
  (ebm): Sequential (
    (0): Linear(in_features=40, out_features=200, bias=True), weights=((200, 40), (200,)), parameters=8200
    (1): GELU(), weights=(), parameters=0
    (2): Linear(in_features=200, out_features=200, bias=True), weights=((200, 200), (200,)), parameters=40200
    (3): GELU(), weights=(), parameters=0
    (4): Linear(in_features=200, out_features=20, bias=True), weights=((20, 200), (20,)), parameters=4020
  ) Total Parameters=52420, parameters=52420
) Total Parameters=67127572
Done loading corpus
Max len 40 and min len 11 and avg len 31.746755
Max len 40 and min len 11 and avg len 31.068278
Max len 40 and min len 11 and avg len 31.068278
GMVAE4Lamol (
  (embedding): Embedding(40484, 512, padding_idx=40479), parameters=20727808
  (dec_embedding): Embedding(40484, 512, padding_idx=40479), parameters=20727808
  (x_encoder): EncoderRNN(
    (input_dropout): Dropout(p=0, inplace=False)
    (rnn): GRU(512, 512, batch_first=True, dropout=0.3, bidirectional=True)
  ), parameters=3151872
  (decoder): DecoderRNN(
    (input_dropout): Dropout(p=0.3, inplace=False)
    (rnn): GRU(552, 512, batch_first=True, dropout=0.3)
    (embedding): Embedding(40484, 512, padding_idx=40479)
    (output_dropout): Dropout(p=0.3, inplace=False)
  ), parameters=22365184
  (q_y_mean): Linear(in_features=1024, out_features=40, bias=True), parameters=41000
  (q_y_logvar): Linear(in_features=1024, out_features=40, bias=True), parameters=41000
  (dec_init_connector): LinearConnector(
    (linear): Linear(in_features=40, out_features=512, bias=False)
  ), parameters=20480
  (nll_loss): NLLEntropy(
    (nll_loss): NLLLoss()
  ), parameters=0
  (ebm): Sequential (
    (0): Linear(in_features=40, out_features=200, bias=True), weights=((200, 40), (200,)), parameters=8200
    (1): GELU(), weights=(), parameters=0
    (2): Linear(in_features=200, out_features=200, bias=True), weights=((200, 200), (200,)), parameters=40200
    (3): GELU(), weights=(), parameters=0
    (4): Linear(in_features=200, out_features=20, bias=True), weights=((20, 200), (20,)), parameters=4020
  ) Total Parameters=52420, parameters=52420
) Total Parameters=67127572
2022-12-28 17:09:35,948 - 0:00:19 - 0.0s - INFO - root - **** Training Begins ****
**** Training Begins ****
2022-12-28 17:09:35,948 - 0:00:19 - 0.0s - INFO - root - **** Epoch 0/60 ****
**** Epoch 0/60 ****
2022-12-28 17:09:35,958 - 0:00:19 - 0.0s - INFO - root - Number of left over sample 0
…
--- bleu: BLEU = 28.90, 51.5/30.8/25.0/22.1 (BP=0.946, ratio=0.947, hyp_len=160775, ref_len=169777)

2022-12-28 21:37:55,696 - 4:28:38 - 0.3s - INFO - root - task_id=1
task_id=1
Done loading corpus
Done loading corpus
/home/xiaodi/anaconda3/envs/pytorch/lib/python3.6/site-packages/torch/nn/modules/rnn.py:65: UserWarning: dropout option adds dropout after all but last recurrent layer, so non-zero dropout expects num_layers greater than 1, but got dropout=0.3 and num_layers=1
  "num_layers={}".format(dropout, num_layers))
2022-12-28 21:38:08,653 - 4:28:51 - 13.0s - INFO - root - GMVAE4Lamol (
  (embedding): Embedding(40489, 512, padding_idx=40479), parameters=20730368
  (dec_embedding): Embedding(40489, 512, padding_idx=40479), parameters=20730368
  (x_encoder): EncoderRNN(
    (input_dropout): Dropout(p=0, inplace=False)
    (rnn): GRU(512, 512, batch_first=True, dropout=0.3, bidirectional=True)
  ), parameters=3151872
  (decoder): DecoderRNN(
    (input_dropout): Dropout(p=0.3, inplace=False)
    (rnn): GRU(552, 512, batch_first=True, dropout=0.3)
    (embedding): Embedding(40489, 512, padding_idx=40479)
    (output_dropout): Dropout(p=0.3, inplace=False)
  ), parameters=22367744
  (q_y_mean): Linear(in_features=1024, out_features=40, bias=True), parameters=41000
  (q_y_logvar): Linear(in_features=1024, out_features=40, bias=True), parameters=41000
  (dec_init_connector): LinearConnector(
    (linear): Linear(in_features=40, out_features=512, bias=False)
  ), parameters=20480
  (nll_loss): NLLEntropy(
    (nll_loss): NLLLoss()
  ), parameters=0
  (ebm): Sequential (
    (0): Linear(in_features=40, out_features=200, bias=True), weights=((200, 40), (200,)), parameters=8200
    (1): GELU(), weights=(), parameters=0
    (2): Linear(in_features=200, out_features=200, bias=True), weights=((200, 200), (200,)), parameters=40200
    (3): GELU(), weights=(), parameters=0
    (4): Linear(in_features=200, out_features=20, bias=True), weights=((20, 200), (20,)), parameters=4020
  ) Total Parameters=52420, parameters=52420
) Total Parameters=67135252
Done loading corpus
Max len 40 and min len 11 and avg len 31.746755
Max len 40 and min len 11 and avg len 31.068278
Max len 40 and min len 11 and avg len 31.068278
GMVAE4Lamol (
  (embedding): Embedding(40489, 512, padding_idx=40479), parameters=20730368
  (dec_embedding): Embedding(40489, 512, padding_idx=40479), parameters=20730368
  (x_encoder): EncoderRNN(
    (input_dropout): Dropout(p=0, inplace=False)
    (rnn): GRU(512, 512, batch_first=True, dropout=0.3, bidirectional=True)
  ), parameters=3151872
  (decoder): DecoderRNN(
    (input_dropout): Dropout(p=0.3, inplace=False)
    (rnn): GRU(552, 512, batch_first=True, dropout=0.3)
    (embedding): Embedding(40489, 512, padding_idx=40479)
    (output_dropout): Dropout(p=0.3, inplace=False)
  ), parameters=22367744
  (q_y_mean): Linear(in_features=1024, out_features=40, bias=True), parameters=41000
  (q_y_logvar): Linear(in_features=1024, out_features=40, bias=True), parameters=41000
  (dec_init_connector): LinearConnector(
    (linear): Linear(in_features=40, out_features=512, bias=False)
  ), parameters=20480
  (nll_loss): NLLEntropy(
    (nll_loss): NLLLoss()
  ), parameters=0
  (ebm): Sequential (
    (0): Linear(in_features=40, out_features=200, bias=True), weights=((200, 40), (200,)), parameters=8200
    (1): GELU(), weights=(), parameters=0
    (2): Linear(in_features=200, out_features=200, bias=True), weights=((200, 200), (200,)), parameters=40200
    (3): GELU(), weights=(), parameters=0
    (4): Linear(in_features=200, out_features=20, bias=True), weights=((20, 200), (20,)), parameters=4020
  ) Total Parameters=52420, parameters=52420
) Total Parameters=67135252
2022-12-28 21:38:08,653 - 4:28:51 - 0.0s - INFO - root - **** Training Begins ****
**** Training Begins ****
2022-12-28 21:38:08,653 - 4:28:51 - 0.0s - INFO - root - **** Epoch 0/60 ****
**** Epoch 0/60 ****
2022-12-28 21:38:08,663 - 4:28:51 - 0.0s - INFO - root - Number of left over sample 0
…
